model_episode_1000.pth (torch, 73412 bytes, 7 tensors)

fc1.weight f4 [128, 4]
000000 31 b7 2c 3c e5 b4 4f be 59 17 8f be fa ba 1f 3e
       0.010541723 -0.2028385 -0.279475 0.1559867
000010 c6 d1 cc bd 74 7c a3 3e 84 d8 c8 3e 78 aa 82 3e
       -0.100009486 0.31930888 0.39227688 0.25520682
000020 bf 68 47 3d 9a 50 48 3e b1 1a df 3f fe d2 66 3e
       0.048683878 0.19561997 1.743002 0.22541425
000030 c3 de 82 be f5 0f 2f 3e 07 0b 53 be aa b1 02 bd
       -0.2556058 0.17095931 -0.20609675 -0.031907715
000040 01 c5 6d bd 2c 13 c1 be 9b bd a9 3e 09 f9 af be
       -0.058049206 -0.3770994 0.3315247 -0.34369686
000050 60 5c 86 be 47 33 6a be bd d9 88 bf f7 9b 78 be
       -0.26242352 -0.22871123 -1.0691448 -0.24278246
000060 af 1e 6f be d0 17 b2 3e 88 f7 72 3f 95 b4 9f 3e
       -0.23351549 0.34783792 0.9490895 0.3119246
000070 6d 35 95 bd c8 f1 84 3a d5 b5 71 bd c9 e7 57 3c
       -0.07285581 0.0010142857 -0.0590113 0.0131778205
000080 23 81 41 be 75 22 36 3e 4b c5 7a 3e dc 5a 8c bd
       -0.18896918 0.17786582 0.24489324 -0.068532676
000090 7f 6b f8 3b 21 25 61 3d 93 1d c4 be 47 fa ae bd
       0.007581174 0.05496705 -0.38303813 -0.0854383
0000a0 e0 ef 2e bc 92 8b e1 3d 70 fb 13 3e 6c 20 55 3e
       -0.010677308 0.11012949 0.14451385 0.20813149
0000b0 29 2a 1c 3e 5b 2f d0 be df 3e d5 3e 73 95 60 be
       0.15250458 -0.4066113 0.4164953 -0.2193201
0000c0 e2 c9 29 3f 33 c7 b9 be eb 25 c2 be a1 6e bd be
       0.66323674 -0.3628479 -0.37919554 -0.36998466
0000d0 e0 81 89 3c 24 98 4d be 98 5b 14 bf ba f0 1c 3e
       0.016785562 -0.20077568 -0.5795226 0.15326205
0000e0 a0 ce f1 3e 98 e5 d4 3e e8 69 24 3f 4e 33 86 3e
       0.47227955 0.41581416 0.642241 0.26211017
0000f0 dd cb a1 3e 8f 1c 0f bd 5f 42 d7 3d af 83 8d bd
       0.31600848 -0.034939345 0.10510706 -0.06909882
000100 57 e0 97 3e 4d c4 02 bf e1 08 77 bf 6a d1 aa be
       0.29663345 -0.5108078 -0.96497923 -0.33362895
000110 5a 92 b6 be fb 91 23 bf 18 70 87 be 2c 1b f4 be
       -0.35658532 -0.63894624 -0.26452708 -0.4767698
000120 31 01 54 bf d5 3d 0f be 33 b1 b5 3e 33 84 d9 3d
       -0.8281432 -0.13988431 0.35486755 0.10620918
000130 e9 2a ee bd 01 fc 63 bc fb c2 1d bf ee 10 34 bd
       -0.11629278 -0.013915063 -0.6162564 -0.043961458
000140 11 f4 4e 3d c9 67 de 3d b3 22 4e bf 55 1c bc be
       0.05052573 0.10859639 -0.80521697 -0.36740366
000150 25 3b e6 be 9e 66 03 bf 30 9e 58 bf 2c ef 1c bf
       -0.44967 -0.51328456 -0.84616375 -0.6130245
000160 06 83 0e 3f e8 08 26 be 52 51 d2 be 32 d4 51 be
       0.55668676 -0.16214335 -0.41077667 -0.20491102
000170 69 6a 1a bf 79 5a 66 3e 8b 5c 5c 3e 18 e6 2a 3e
       -0.6031862 0.2249545 0.21519677 0.16689336
000180 b6 4f ec bd f9 50 24 3e 4d 1d d1 bd 8e f7 05 3d
       -0.11538641 0.16046514 -0.10210667 0.03270679
000190 67 b0 d0 be 9d 72 99 bd 1c c0 95 be 3e 8b ac bd
       -0.40759584 -0.07492564 -0.2924813 -0.08424996
0001a0 0e 3f ed 3d 4e 69 98 be e9 5b 8f 3f 1e 55 e2 bd
       0.11584292 -0.2976784 1.1199924 -0.11051391
0001b0 54 63 71 3d ed 40 3d be b1 c7 04 bf 67 3d 6a 3d
       0.058932617 -0.18481798 -0.51867205 0.057187464
0001c0 52 e3 05 bf b2 31 7d be 1e 36 f8 3d 58 47 84 be
       -0.5229999 -0.24725989 0.12119697 -0.2583568
0001d0 8a e5 32 3f 96 75 3c 3e a4 f9 ad 3e 27 5b 9d 3e
       0.698815 0.1840423 0.33979523 0.30733606
0001e0 8d 4b e7 3b a8 9d 97 3e fe 00 ce 3f bb 32 91 3e
       0.007058567 0.2961247 1.6094053 0.28359017
0001f0 8d f9 14 3d 3c 4b 2c be f1 61 18 3e ac 17 cb b9
       0.036370803 -0.16825575 0.14881112 -0.00038736814
000200 04 0e 0b 3f cd f1 bd 3e e0 02 36 3f 82 a7 91 3e
       0.5431826 0.37098542 0.71098137 0.2844811
000210 b3 f5 5a be 42 f8 78 be 4f 7a b2 3e e9 94 40 bd
       -0.2138279 -0.24313453 0.3485894 -0.04701701
000220 e2 cb 5a bd fb 28 1f 3f dc 6c 61 3f 97 e5 00 3f
       -0.053417094 0.62171906 0.8805673 0.50350326
000230 38 ff ad 3c 23 63 7a 3c 88 6d c5 3f ee 6d 8a 3e
       0.021239862 0.015282425 1.5424051 0.27036995
000240 b9 f5 9f be 37 8e f3 3e c6 be 57 be 10 3b 77 be
       -0.3124216 0.4756944 -0.21068868 -0.24143624
000250 4a ab 23 3d c7 d7 31 3e 8a dd 01 bf ee 64 9c be
       0.039958276 0.17367469 -0.50728667 -0.30545753
000260 3a ce 29 be 20 4d 41 be 31 77 63 bc 71 5a 74 be
       -0.16582575 -0.18877077 -0.013883398 -0.23862626
000270 da 7e 0a 3e e2 50 00 3f 7f 3c 28 3f 42 60 7b 3e
       0.13524953 0.5012342 0.6571731 0.24548438
000280 98 93 93 be 28 6e 1e 3e 3c 93 83 bf e0 65 68 be
       -0.28823543 0.15471709 -1.0279307 -0.22695112
000290 f9 1c 2a 3e c5 c6 28 3b d8 5e fb be e4 a8 8c 3e
       0.16612615 0.0025753241 -0.49095798 0.27472603
0002a0 19 bc 32 be 08 8f 0d bd 5f 40 62 3f ec 01 0a 3e
       -0.17454566 -0.034560233 0.8837947 0.13477296
0002b0 ec 72 21 3f 5b 7d b3 3d 22 df e7 3e 74 71 b1 bd
       0.6306598 0.08764144 0.45287424 -0.086642176
0002c0 de 2d 24 bf 4d e5 88 be 47 d9 99 be 77 06 0e bf
       -0.6413249 -0.26737443 -0.30048582 -0.55478615
0002d0 4a 2d 97 bd 1a b5 e3 3e 2b ca fc 3e 08 d1 9b 3e
       -0.07381685 0.44474107 0.49372992 0.30432916
0002e0 47 c3 3a 3f 4a 4a 50 3e e7 e3 3b be 26 b1 16 3c
       0.7295422 0.20340839 -0.18348657 0.009197509
0002f0 ed ac aa b9 5e 84 1a be 9a 6c c4 3e 16 50 63 be
       -0.00032553767 -0.15089557 0.38364106 -0.22198519
000300 53 da 66 bd 0e 52 a8 3e 4c ca 29 3e 91 a9 7e 3e
       -0.056360554 0.32875103 0.16581076 0.24869372
000310 39 de 25 bd 69 ea 6c 3e 1f 3c 93 be 87 fd f4 3d
       -0.04049513 0.23136295 -0.28756806 0.11962419
000320 d9 47 bf 3c 82 4b 25 3e c6 9a 1c be b0 c5 db 3e
       0.02334969 0.16142085 -0.15293416 0.4292426
000330 26 30 01 3f be fd 92 3e a5 cb 5f 3e 61 9f 36 3e
       0.50464094 0.28709215 0.21855028 0.17834236
000340 01 a9 b2 bc 47 a7 d4 bd 91 d8 d5 3f df b3 17 3d
       -0.021809103 -0.10383468 1.6706716 0.037036773
000350 65 9e 8b be fd 38 b9 3d 0b c3 d1 bc 95 f9 94 bc
       -0.27269283 0.09044073 -0.025605699 -0.018185416
000360 b2 72 a1 3e 32 8e 30 bf fd c3 6e bf 36 48 b0 be
       0.31532818 -0.6896697 -0.93267804 -0.34430093
000370 c2 74 5b 3e 22 1d b9 be 84 8d eb be f2 58 5f be
       0.21431258 -0.3615504 -0.46006405 -0.21811274
000380 29 5d 90 bd e9 ce 03 be 7f 82 53 3c 48 5a 8b 3e
       -0.07049019 -0.12871899 0.012909531 0.27217317
000390 25 9d 07 bb 16 2e 1f 3e f9 f4 b0 3f 39 d6 65 3e
       -0.002069303 0.15544924 1.382476 0.22445
0003a0 ca 63 82 3d cc d8 9e be 3a a1 d2 be 40 7d a7 bd
       0.063666895 -0.31024778 -0.4113863 -0.081781864
0003b0 10 ad b0 3e 42 32 c8 3e bb a3 7b 3e 6d 3b 82 3e
       0.34507036 0.39100844 0.24574177 0.25435963
0003c0 c4 c4 0e be 23 3d ad 3e ad 95 af 3e 0b 89 76 3e
       -0.13942248 0.33835706 0.3429388 0.24075715
0003d0 78 24 6d bd 34 3d c3 3d f1 a8 b2 3f 8c 98 9c 3e
       -0.057896107 0.09533158 1.3957807 0.30585134
0003e0 48 42 44 3d 36 88 c0 3b f6 7b b6 3f 73 12 93 3e
       0.047914773 0.0058756126 1.425658 0.28725013
0003f0 c8 08 c1 be dd b0 31 3f ec 5e 3d bf 29 fd c0 be
       -0.37702012 0.69410497 -0.73972964 -0.37693146

fc1.bias f4 [128]
000000 55 62 b8 3e 02 17 03 3f a1 82 24 3e a2 ca 62 3f
       0.3601252 0.5120698 0.16065456 0.88590443
000010 c9 4c 41 3f 00 52 da 3e 45 f3 27 3e d7 f3 10 3f
       0.7550779 0.42640686 0.16401394 0.5662207
000020 56 10 0f bf e7 d4 8b 3e 0f 09 34 3e 06 db d1 3e
       -0.558843 0.2731087 0.1758158 0.40987414
000030 4a 09 c5 bd 12 95 9b 3e e7 56 d5 bd 61 7a a9 be
       -0.096209124 0.3038717 -0.10416966 -0.3310118
000040 a3 9a 26 3f cc 8d 9c be d3 e4 9b 3e 30 d5 af 3e
       0.65079707 -0.30576932 0.30448017 0.34342337
000050 69 e3 9a be eb ba df bd c2 94 84 be db d0 e3 be
       -0.30251625 -0.10924324 -0.25894743 -0.44495282
000060 8a 4c b3 be 75 1e 06 bf 0d d0 88 3d 5f c2 c2 3e
       -0.35019332 -0.52390224 0.066803075 0.38038918
000070 46 fd f2 be 03 99 b7 3e 35 dc fb 3d ba b8 a3 3e
       -0.47458857 0.35858926 0.122978605 0.31976873
000080 a8 ae 60 3e f4 8f 24 bf af 2f 17 be be af c5 3e
       0.21941626 -0.64282155 -0.14764284 0.38610643
000090 38 b7 19 be 80 44 89 be d1 a3 6d 3f c3 0b 50 be
       -0.15011299 -0.26810074 0.9282809 -0.20316987
0000a0 55 c3 b4 3e 59 8c e0 3e 2a 88 3e 3d 4e ed 12 be
       0.35305277 0.43857077 0.046516575 -0.14348337
0000b0 95 9d 9d be 0a 46 ea 3d 3e 67 d7 bd 81 fc e7 be
       -0.30784288 0.1143914 -0.10517739 -0.45309833
0000c0 d0 ce b7 3e f4 d7 73 3e 1e 0a 7d be d1 d7 e5 be
       0.35899973 0.23812848 -0.2471089 -0.44891217
0000d0 3c 5f 28 3e ee 11 36 bf ed 5b 14 3f 4f b6 0f 3f
       0.16442579 -0.7112111 0.5795277 0.56137556
0000e0 8c 83 ab be d6 03 4a 3e 4e 3e e2 3e d8 9a 8a be
       -0.334988 0.19728026 0.4418816 -0.2707126
0000f0 49 1d c6 be 6a c7 b5 3e e7 63 f4 3e b3 73 7d be
       -0.38694218 0.35503703 0.4773247 -0.24751167
000100 5b 77 9f be bd 0f 41 3e 16 e4 00 bf bb 8e 9a 3e
       -0.31145748 0.1885366 -0.5034803 0.3018702
000110 e0 9d af be b7 39 c2 be e1 f2 90 3e 77 ab b5 3e
       -0.34300137 -0.37934658 0.28310302 0.3548238
000120 0c 74 f9 3e f0 52 00 ba 3e 2a 90 3e 4e d2 07 bf
       0.4872135 -0.0004895171 0.28157228 -0.53055274
000130 66 72 64 be 9f c9 92 be bd ee fb be 30 96 e9 3d
       -0.22309265 -0.2866945 -0.4920558 0.11405599
000140 d7 8d eb 3d 79 a0 8e 3e 29 68 d0 3e f4 fe 08 bf
       0.11501663 0.27856806 0.40704468 -0.5351403
000150 e8 8a b2 bd 85 a0 47 3e d7 ac 3d 3f 9f 75 f3 be
       -0.087179005 0.19494827 0.7409186 -0.47550675
000160 f6 38 e2 be 46 b4 4a 3f 85 25 4a 3f eb a8 63 be
       -0.44184083 0.79181325 0.789635 -0.22232406
000170 ce 94 74 bd 93 25 82 3e 4f 21 20 3d 6e f2 1f bf
       -0.059712224 0.25419292 0.039094266 -0.62479293
000180 ab 53 55 be 6d 2c 5d bc 3d dc 24 bf 77 bd d1 bd
       -0.20832698 -0.013499361 -0.64398557 -0.10241216
000190 73 c1 05 3f 1f 75 d8 3e 3f 37 49 be ac 23 10 3f
       0.52248305 0.42276856 -0.19649981 0.5630443
0001a0 a7 ec 13 bf 65 f7 aa bd a8 8f 00 3d fe dc f8 3d
       -0.5778298 -0.08347968 0.031387 0.12151526
0001b0 90 cb 97 3e ae b2 f3 3e f9 e3 31 3e 16 6c 8e 3e
       0.29647493 0.4759726 0.17372121 0.27816838
0001c0 17 4a 9b be c2 df d4 3d 42 7a f3 3e 73 f9 6b be
       -0.30329964 0.10394241 0.47554213 -0.23044376
0001d0 4b 8b b8 be 61 5f 4b be f8 79 aa be ba 7b 9a 3e
       -0.36043772 -0.19860603 -0.3329618 0.3017252
0001e0 a7 22 0f 3e 9e 6c 4a be b6 6f df be c3 b2 66 be
       0.13978063 -0.19767997 -0.43639916 -0.2252913
0001f0 db c0 71 3e 81 5c 4b 3e 1a 26 60 be 25 80 58 3d
       0.23608725 0.19859506 -0.21889535 0.052856583

fc2.weight f4 [128, 128]
000000 d8 4e 9b bd ff 86 68 bd 99 53 5a 3d b8 a1 94 bd
       -0.075833976 -0.056769367 0.05330238 -0.07257408
000010 36 24 59 bd 50 33 c9 bb 91 23 fe 3c 1e 76 20 3c
       -0.05301305 -0.00614015 0.031022819 0.009793786
000020 62 7d 95 3d 08 42 0a bd d3 cf d3 bd 51 ab a7 bc
       0.072993055 -0.03375438 -0.10342374 -0.020467432
000030 e6 13 2e 3d 23 85 6e bd ba 36 26 bd d7 fc 08 3d
       0.042499445 -0.058232438 -0.040579535 0.033444252
000040 09 31 62 bc 05 24 22 3d 91 33 c9 bc 69 68 b2 bd
       -0.013805636 0.039585132 -0.024560722 -0.08711321
000050 8f ec a3 bc d7 84 f9 3b 61 f8 48 bc 3b 5c 27 3d
       -0.02001026 0.0076147127 -0.012266249 0.040859442
000060 69 6b 38 3d 9f 46 ed bb 69 24 74 bd 7e 16 81 3d
       0.04502431 -0.0072410847 -0.059605036 0.06303118
000070 11 dd 2c 3d ed e0 4e 3d 03 5f 8b 3c f3 5d 4f 3c
       0.042203013 0.050507475 0.017013079 0.012656677
000080 61 fc 8a bd 72 2a 77 3c 51 d2 3c 3d 50 ad 67 bd
       -0.06786419 0.015085803 0.04609901 -0.056561768
000090 ed be 2d 3d a6 6d ac bd 20 1a 8b 3d 91 d4 3b 3d
       0.04241841 -0.08419351 0.06792092 0.045857016
0000a0 b2 67 8a 3c 70 a1 ad bc e3 8f a8 bd 78 23 56 3d
       0.016895149 -0.021195143 -0.08230569 0.05227992
0000b0 af 1c aa bd dd c1 4f bb 47 8e 4f 3d f5 19 1d 3d
       -0.08306252 -0.0031701245 0.050672796 0.038354833
0000c0 58 fc b2 bd 66 75 33 3d 4d 8a 0c ba f8 f2 53 3d
       -0.08739537 0.04381313 -0.00053611846 0.051745385
0000d0 47 bb 23 3d c6 56 75 3b 78 2c d8 bc 9a e1 25 3c
       0.039973523 0.0037435754 -0.026388392 0.010124588
0000e0 dd 76 a8 bd 6f 54 e6 bc 4d d9 90 bd 43 18 1d bd
       -0.08225796 -0.028116433 -0.07072697 -0.038353216
0000f0 cf 23 1b 3d 48 16 76 3d 50 9d ac 3c 7b 08 64 3c
       0.037875947 0.060079843 0.021071106 0.0139180375
000100 21 f4 2a 3d bd eb 56 3d 40 bc 1e bd bf 76 45 bc
       0.041736726 0.05247091 -0.038753748 -0.012052237
000110 57 94 5c 3d 3e 99 06 bc 86 4f c6 bd b1 90 3a 3d
       0.053852405 -0.008215247 -0.09683137 0.045548145
000120 06 ab d2 bd 5b 47 2c bd 0a c5 34 bb c4 36 a1 bb
       -0.102865264 -0.042060237 -0.0027583265 -0.0049198586
000130 9e d3 10 3d eb cd 14 3d f0 1a 29 bc 31 e6 d6 bd
       0.035358064 0.03632919 -0.010321364 -0.10493124
000140 5b 7e 81 3d 6e aa 91 3d 75 1e 54 bd 10 44 ee 3c
       0.063229285 0.07112585 -0.05178686 0.02908519
000150 fa 56 97 bd 7e b8 08 3d 4f 94 25 bd 2b fa 8f bc
       -0.07389636 0.03337907 -0.04042464 -0.017575344
000160 f6 3e 23 3d ae 82 86 3d 6e bb c2 bc 94 89 a2 bd
       0.039854966 0.06567894 -0.023771014 -0.07936397
000170 67 96 7f bd b4 fa b4 3c 08 c3 aa bd 09 5d f7 3c
       -0.062399294 0.0220922 -0.083379805 0.03019573
000180 20 ab 9b bd 4e fb b8 bb c4 4a 46 3c 1d fe 8a 3d
       -0.07600999 -0.005645192 0.012102786 0.067867495
000190 98 5b 0b bc 63 4f f7 ba f4 15 66 bd 6d c3 34 bd
       -0.008505724 -0.0018868264 -0.05617328 -0.044131685
0001a0 d1 60 3d 3d 77 56 ba bd dd 4b 14 3d 64 67 70 3c
       0.04623491 -0.09098523 0.03620516 0.014673088
0001b0 55 64 56 bb c0 bc 65 bc ce 44 db bd 8c 77 0c bd
       -0.003271361 -0.014022052 -0.10706483 -0.034293696
0001c0 bd df 9d bc 2b 3d b3 bd 77 40 72 bc c8 3f c4 bc
       -0.019271726 -0.08751901 -0.014785877 -0.023956195
0001d0 2e 6d 6a bd 97 bf f7 3c 8c 75 5f bc ba 81 04 bc
       -0.057233028 0.030242724 -0.013638865 -0.00808757
0001e0 7d b0 3e bd 88 2f b6 bb ca ff 04 bd 41 4d 87 3d
       -0.04655503 -0.0055598654 -0.032470502 0.06606532
0001f0 17 7e d4 bb d7 f3 59 bd 09 f8 ac bc 1b 39 98 bd
       -0.0064847576 -0.05321106 -0.021114366 -0.07432767
000200 23 27 ac bb 71 2b 7e 3c 9b ca 68 3b 6f b6 29 bd
       -0.005253689 0.015513287 0.0035521153 -0.041433748
000210 b1 cc df bc f1 27 93 bd 21 67 96 bd ca 3b 87 bd
       -0.027319284 -0.071853526 -0.07343889 -0.06603201
000220 6c 47 fa 3c 40 f5 9d 3c b8 a8 93 bd f4 6b 36 bd
       0.030551635 0.019281983 -0.07209915 -0.044536546
000230 fe 3a 72 bc 97 a7 f2 bc 6a a8 a9 bd 80 f9 aa bd
       -0.014784573 -0.029620929 -0.082840756 -0.083483696
000240 7b b5 9e 3d ae 46 98 3d 5d 28 8c bb 64 58 ca bc
       0.077494584 0.07435356 -0.0042772726 -0.024700351
000250 29 e7 27 3c e5 87 9c bd e8 ed 65 bd 3f be 54 bb
       0.010247984 -0.07643107 -0.05613509 -0.0032462028
000260 40 3b 03 bc f7 68 4b 3d 7f 29 03 3d 6c 5e 9c bc
       -0.008009732 0.04966065 0.032021996 -0.019087993
000270 94 93 bb bc ea fa 60 bb 69 30 27 3d fb aa 27 3b
       -0.02289752 -0.0034329244 0.040817652 0.002558409
000280 a8 e2 92 bd 77 a4 90 bc db 73 91 3d 04 26 ae 3d
       -0.071721375 -0.017656548 0.07102176 0.08503345
000290 76 a6 97 bd ee 90 a3 bd b5 c6 88 bd af 46 8e 3d
       -0.07404797 -0.079866275 -0.06678525 0.069470756
0002a0 71 d2 37 bd 59 e8 9a 3d 17 51 a1 3d e8 6b b3 bd
       -0.044878427 0.07563848 0.07876795 -0.08760816
0002b0 17 a6 bb bc 97 b0 24 3d 89 06 53 3d 9d ed 34 bb
       -0.022906346 0.04020747 0.051519904 -0.002760745
0002c0 49 58 22 bd 93 c3 a3 bd a8 ed 82 3c 31 7d 4a 3d
       -0.039634977 -0.07996287 0.015982464 0.049435798
0002d0 2c e5 8a bc bd 57 99 b9 7d e2 4a 3b dc 5e bb 3c
       -0.01695498 -0.00029247804 0.0030957751 0.02287238
0002e0 d1 d2 99 3d 6e 21 2d 3d 81 e3 2e bb 43 81 28 3d
       0.07510913 0.04226821 -0.0026685896 0.0411389
0002f0 fa 32 70 bc df a8 b2 3d a5 db b5 bb b1 3b 97 bd
       -0.014660591 0.08723616 -0.0055498653 -0.07384432
000300 a7 ac 4f 3d 63 f9 58 bd d9 9d 95 3d 31 f9 b1 bd
       0.050701763 -0.05297221 0.07305498 -0.086901076
000310 1a 46 6a bd dc 6e ad 3d 80 5d 86 3d d9 df e7 3c
       -0.05719576 0.084684104 0.065608025 0.028304981
000320 ab fb 9d 3d 19 42 a6 3d 9d 22 0d bb de b4 d2 3c
       0.077140175 0.08118076 -0.0021535524 0.02572101
000330 4c a5 59 bd cb 3f 0b bd 4f 7c 15 3c df 28 02 bd
       -0.053136155 -0.033996385 0.009123876 -0.03177726
000340 6d 2b 1f 3b e8 a4 81 bd ac f7 eb 3a c0 f0 9d bd
       0.0024287358 -0.063302815 0.0018002889 -0.07711935
000350 e4 2d 68 bc e9 1b 2c bc 20 a0 85 bd 5f a8 84 bc
       -0.014171097 -0.010504701 -0.06524682 -0.016193567
000360 04 2e f2 bc b0 a5 ab bd 92 62 22 3d 5b 9c 53 3d
       -0.029562958 -0.08381212 0.039644785 0.051662784
000370 b4 5c 96 bc ed 79 25 3c 87 d4 2d bc 59 45 62 bc
       -0.018354751 0.01009987 -0.0106097525 -0.013810479
000380 a4 25 22 bd 79 c0 2f bd 6c e0 ab bd ed cf b4 bd
       -0.03958668 -0.042908166 -0.083924145 -0.08828721
000390 30 44 80 bd d8 01 a1 3d 37 dd a8 bc 6f 1f 73 bd
       -0.06263006 0.0786168 -0.020613296 -0.05935615
0003a0 64 c2 a8 3c 53 44 e7 bc ae 9a 5f bc db 6b 8c 3d
       0.020600505 -0.028230822 -0.013647718 0.06856509
0003b0 31 ff 94 bd f4 f4 66 bd d5 73 87 3d 77 3f eb bc
       -0.072752364 -0.05638595 0.0661389 -0.028716786
0003c0 ac 13 91 bd 6d d2 e8 3c d1 42 ad 3b 8b 5b 97 3d
       -0.0708383 0.028420651 0.005287506 0.07390507
0003d0 77 30 66 bd 24 8f 18 bc c8 e2 9c 3b 5e 01 11 3d
       -0.056198563 -0.009311471 0.0047877766 0.035401694
0003e0 e5 af 9b 3d ff 51 8f 3d d1 3a 9b 3d 4b dc 90 3d
       0.076019086 0.069980614 0.07579578 0.070732675
0003f0 25 4f 3e bd a7 58 15 3d c9 8a ae bd 31 1e c0 bc
       -0.046462197 0.0364615 -0.08522565 -0.023451896

fc2.bias f4 [128]
000000 bd 6e c3 bd 90 c4 69 3d df 8d 69 3e f1 cb 2a bd
       -0.09542606 0.057072222 0.22808026 -0.0416984
000010 5c ca 02 bd 62 30 22 3e ce 47 86 3a 4a 5e f3 ba
       -0.031931266 0.15838769 0.0010244788 -0.0018567529
000020 1a cc ae bd e5 3c 1d 3d 9f 3f 0d 3d 0a 44 03 bc
       -0.08535023 0.03838815 0.034484502 -0.008011827
000030 08 5e 45 3a 9b 45 0f bd 11 00 67 bd 6d c6 d0 3c
       0.00075289654 -0.03497849 -0.056396548 0.025485242
000040 4a 6d a0 3d 4b 7a fb 3d 4a 3c 20 3e aa dc c2 3d
       0.07833345 0.12279185 0.15647998 0.095147446
000050 c9 1a 3c 3e 88 f6 b0 3e 13 b1 55 bd 3a 72 aa 3e
       0.18369593 0.34563088 -0.052170824 0.33290273
000060 24 d0 1b 3d ff dc 2d 3c 53 46 ca 3d 3a c9 b3 3e
       0.038040295 0.010611772 0.098766945 0.3511446
000070 ef f2 94 3e 14 a9 3a 3e fc 24 3e 3e 35 d1 7c 3e
       0.29091594 0.1822856 0.18568796 0.24689181
000080 3f fb c0 bd 8c ba 9d bd 76 d7 fd bc 89 9b c4 bd
       -0.094229214 -0.077015966 -0.030986529 -0.095999785
000090 2f ba 9a bd ca 94 57 3e a5 eb b5 3e 86 2a 29 bd
       -0.07555043 0.21052852 0.35531345 -0.04130032
0000a0 ef 68 3a 3e 2f 83 12 bd 3c 59 85 3e 00 18 a5 3e
       0.18204091 -0.035769638 0.26044643 0.32244873
0000b0 87 8c ad bd fe 6b 0f bc ed ed 11 3e 56 6c 8c 3e
       -0.08474069 -0.008753775 0.14250918 0.27426404
0000c0 26 64 ff bc 64 35 5f 3e 7e 61 a0 3d 50 01 11 bd
       -0.031175684 0.2179771 0.07831095 -0.035401642
0000d0 b7 71 84 3e 2a 69 b9 bd b9 ad 92 3e 12 ab ab 3e
       0.25868008 -0.090532616 0.28648165 0.33528954
0000e0 44 1b 0f 3f e5 f7 17 bd fc a0 1c 3e 33 25 42 bd
       0.5590098 -0.037101645 0.15295786 -0.047398757
0000f0 eb 84 8d bd 0e 0f 94 3e bc fa e6 bd 3f b3 cc 3b
       -0.06910118 0.28917736 -0.112782925 0.0062469537
000100 62 72 fd 3d 3d c8 ec bc 16 aa 97 3c 62 8a 7a 3e
       0.123753324 -0.028904075 0.01851372 0.24466851
000110 2b 7b 57 3e c3 73 f8 bd e3 c1 ae bc ac 1d 82 bd
       0.21043079 -0.12131455 -0.021332687 -0.06353316
000120 fd 30 a5 bc cb 20 8c 3d 03 5f 12 be 2d 84 a2 bd
       -0.020164961 0.06842192 -0.14294057 -0.07935367
000130 df c5 47 bd c8 98 0d be fe 5f 3d bd ec 4e 5d 3c
       -0.04877269 -0.13827813 -0.046234123 0.013507586
000140 fe 4b c0 bd 6f 45 07 3e 6e 94 a0 bd c9 a6 86 3e
       -0.09389494 0.1321008 -0.07840811 0.26299122
000150 41 34 40 3e fa eb 10 bd e9 ff 03 3c 77 09 b0 bd
       0.18769933 -0.035381295 0.008056619 -0.08595555
000160 ed 89 3b be 7f 21 97 bc 38 03 76 bd 5e 7e 71 bd
       -0.18314333 -0.01844859 -0.060061663 -0.058958404
000170 f0 a6 0d 3a 60 b5 f7 bd 9d d1 9a 3e 59 54 83 3d
       0.0005403599 -0.120951414 0.30238047 0.064125724
000180 07 3f bf bd 6b 6d 95 3e ea f8 70 3e ce b7 9a 3e
       -0.093381934 0.29185042 0.23532453 0.30218357
000190 53 28 c1 3d 4f 4d 89 3e 95 5f 46 3e c2 3f 3d 3b
       0.09431519 0.26816794 0.19372399 0.0028877114
0001a0 d5 ba 67 bd e3 5a a7 bd 68 23 82 bc 64 92 25 be
       -0.05657466 -0.08171632 -0.015886024 -0.16169125
0001b0 7c ac 88 3d 03 2e 3e 3c 25 74 1c 3e 60 30 73 3d
       0.06673524 0.01160765 0.1527868 0.059372306
0001c0 eb e8 05 bd f4 76 bc bc 5a 6f 17 be bb 90 1d bc
       -0.03269283 -0.02300594 -0.14788571 -0.009617026
0001d0 6f a4 a2 bd d8 a1 10 bd 3f 0f b0 3e 3c dd 78 bd
       -0.079415195 -0.035310596 0.34386632 -0.06075786
0001e0 b2 bc e0 3d 67 91 ba 3b a6 c4 ac bd d6 80 ce 3d
       0.10973491 0.005693603 -0.08435945 0.10083167
0001f0 4b d6 9c 3e 0d 02 4d be 50 48 7a bd 4e e7 0b bc
       0.30632243 -0.20020314 -0.06110412 -0.008539034

policy_logits.weight f4 [2, 128]
000000 4f f8 54 3d ab e5 69 bc 27 44 b8 3d 56 25 fd 3c
       0.051994618 -0.0142759485 0.08997374 0.030901592
000010 bc 29 6f 3d c8 ff 30 3e 7a 7f 0d 3d 7f fe 9f be
       0.05838941 0.17285073 0.0345454 -0.31248853
000020 4a 60 b0 bd e1 36 77 be a9 16 c7 3d 95 e0 85 bc
       -0.08612116 -0.24142028 0.09721119 -0.01634244
000030 15 0c 30 bf 4a 12 9d bb 9d fd 5e bc 4d d4 fb 3a
       -0.68768436 -0.00479344 -0.013610271 0.0019213051
000040 7b 0b f6 3d 72 2c 87 3c 5e 28 ab 3b c4 c3 d1 bd
       0.120139085 0.016500685 0.005223318 -0.102424175
000050 c2 77 9c be 46 21 e9 be 32 87 86 3d 46 8c d4 be
       -0.30560118 -0.45533198 0.06568755 -0.4151327
000060 88 76 e4 3c 1d 63 96 3d ec af 04 3e ad 5a b3 3e
       0.027888551 0.07343123 0.12957734 0.35030118
000070 2a ae 06 bf 88 f9 da be 32 fc 0f 3e 61 2f fa bc
       -0.52609503 -0.42768502 0.14061049 -0.03054017
000080 44 ee 17 bd 26 62 86 bd d2 76 0e ba 5d b5 e0 bc
       -0.037092462 -0.06561689 -0.0005434576 -0.02743023
000090 7b f4 aa bd 70 f5 c1 3b d0 06 dd be c7 52 ee 3e
       -0.08347412 0.005919151 -0.4316926 0.4654753
0000a0 8e 0a 5e 3e 5c 12 6b bf ec 97 44 bb a6 fb cc 3b
       0.21683714 -0.9182489 -0.002999778 0.006255585
0000b0 5c 25 62 bd 7c f7 d4 3e 41 b8 64 3a d6 7d b2 3c
       -0.05521141 0.41595066 0.0008724966 0.021788519
0000c0 a6 23 de bd 62 52 1b 3d 03 03 36 bc 68 06 90 3c
       -0.10846643 0.037920363 -0.0111091165 0.01758118
0000d0 d5 4d 80 bd 0c 3f 71 bd fb bd cd be b6 72 4d bd
       -0.06264845 -0.058898017 -0.40184006 -0.050158225
0000e0 b1 86 2f 3e cd 70 60 bc 8c c5 1c be dc e7 54 3a
       0.17141224 -0.013698769 -0.15309733 0.0008121708
0000f0 e4 67 a9 be 06 35 b7 be ec 0c 31 be eb a7 bd be
       -0.33087075 -0.3578264 -0.17290086 -0.37042174
000100 09 73 7f 3d 9c 74 3b 3e ad 18 16 3d f4 65 16 3e
       0.062365565 0.18306202 0.036644626 0.1468733
000110 a5 77 60 3d 7c 27 21 be 28 a5 93 3c cd 96 3e be
       0.054801602 -0.15737718 0.018023089 -0.18612213
000120 c6 d3 80 bf b5 94 35 bd 80 0f ac 3e 7e 75 e8 3b
       -1.0064628 -0.04433127 0.33605576 0.0070940843
000130 97 9a 44 bd 56 85 17 bd be e2 6a bd d5 21 c3 be
       -0.04799899 -0.036992393 -0.057345144 -0.3811175
000140 a1 e4 01 be c8 b5 88 3d 9e 45 a5 3c 51 9d a1 3d
       -0.12684871 0.06675297 0.020174798 0.07891334
000150 80 a8 b6 be c6 6f 33 be 93 1b 80 3c f8 8c b7 3c
       -0.3567543 -0.17523107 0.015638148 0.022406086
000160 84 5c 43 be ed d4 45 3d ac 8d d3 bd 7c 80 a2 bc
       -0.1907826 0.048298765 -0.10329756 -0.019836657
000170 7f a1 8a 3d 41 fa 7d bd 3e cc bb 3d 64 da c0 bc
       0.06769084 -0.06200624 0.091698155 -0.023541637
000180 c4 72 b2 3e 21 18 d2 be 46 c1 1b 3c a8 c8 0d 3e
       0.34853184 -0.41034034 0.009506529 0.13846076
000190 9e 41 24 be 0e dd 14 3a c7 5d e9 be 53 62 53 3d
       -0.16040656 0.00056786917 -0.4557936 0.05160744
0001a0 1b 3f 16 be dd 84 9e bd 18 46 c1 3c 7b 32 51 be
       -0.1467251 -0.077401854 0.023592994 -0.20429413
0001b0 23 c4 14 3c c9 9e 90 3d 2f ff d0 3d ff 12 aa 3e
       0.009079966 0.07061536 0.102049224 0.33217618
0001c0 d6 be 45 3f 8c d7 28 bd 57 69 26 bd 69 e4 ba 3e
       0.7724432 -0.041221187 -0.040627804 0.36502388
0001d0 6e 17 33 bc ed 06 35 3d c7 85 d4 be f7 68 7e 3e
       -0.010930879 0.044196058 -0.41508314 0.24844728
0001e0 b8 16 49 3e 45 96 5a 3d f7 84 97 bd c7 e8 cd bd
       0.19637573 0.053365964 -0.07398408 -0.100541644
0001f0 af f6 1b bf 0e 48 cd be f5 c4 a0 3c 7b 27 36 3b
       -0.60923284 -0.40094036 0.019625166 0.0027794528
000200 aa 19 92 3d fa f3 a6 3d 15 11 9b bd 99 52 04 3d
       0.07133801 0.081520036 -0.075716175 0.032305334
000210 5d 31 d7 bc 0a ca 3b bd fc 65 4c bd 73 84 69 3e
       -0.026268655 -0.045846976 -0.049901947 0.22804432
000220 70 a8 0a 3e 11 41 79 3e 74 0e 96 bc ab 1f 66 3d
       0.13540816 0.24341227 -0.018317439 0.056182545
000230 e3 84 2b 3f af ee 53 bd 1e e8 88 bd e9 26 a1 3d
       0.66999644 -0.0517413 -0.06684898 0.0786875
000240 42 09 41 3b ca 95 e2 38 4a 8d d1 bd 36 75 16 3d
       0.002945498 0.0001080442 -0.10232027 0.036732875
000250 6f d6 ae 3e 32 61 f1 3e 26 1d a5 3d b7 cb e3 3e
       0.34147975 0.47144467 0.080622 0.4449136
000260 7d d5 03 be 61 bf 33 3c de b1 81 be 52 e0 d8 be
       -0.12874408 0.010970921 -0.25331014 -0.42358643
000270 65 a2 cd 3e 98 fc d8 3e dd 08 ff bd 5c 73 9d bc
       0.4016296 0.42380214 -0.124528624 -0.019220047
000280 3c f3 3f bd dc cd 67 bd c6 ea 6a bd b3 12 8c 3d
       -0.046862826 -0.056592807 -0.057352804 0.06839504
000290 47 1f 7f 3d 37 e3 34 bc e6 83 dc 3e ad ca cb be
       0.062285688 -0.0110405 0.4306938 -0.39803067
0002a0 15 6f 68 be 0c 83 52 3f 50 c4 ab bc ff 62 da 3c
       -0.22698624 0.8223121 -0.020967633 0.026658533
0002b0 d6 14 16 bd 54 54 f8 be 5e 65 f6 3c 34 88 b3 bc
       -0.036640964 -0.48501837 0.030077633 -0.021915533
0002c0 6c ac ee 3d bf 40 4f be 97 58 06 3c b4 c6 60 bd
       0.116539806 -0.20239542 0.008199832 -0.054876998
0002d0 5b d3 7b bd 0f 30 6f bc 88 45 8c 3e 6d b0 24 bd
       -0.06148086 -0.01459886 0.27396798 -0.040207315
0002e0 34 b5 07 be cd 05 3b bd ce 90 8c 3d 83 9a 22 bd
       -0.13252717 -0.04565983 0.06863557 -0.039698135
0002f0 3a 4e 23 3e e5 62 c5 3e d4 35 21 3e 45 7c 8a 3e
       0.1594781 0.38552013 0.1574319 0.27047935
000300 89 90 69 bd 5b 7e 35 be 6d d9 c2 3c be 2c c6 bd
       -0.057022605 -0.17723982 0.023785317 -0.09676503
000310 ef bb b0 bc 76 30 b2 3c 3c 36 1a bd da 30 6e 3e
       -0.021573989 0.021751624 -0.03764938 0.23260823
000320 2d 96 84 3f eb fa 5b bd ff b2 71 be 80 2c 79 3c
       1.035833 -0.05370609 -0.23603438 0.0152083635
000330 b0 b8 f0 bc 7e 23 74 3c 56 03 19 bb ff 72 c7 3e
       -0.02938494 0.01490104 -0.0023347936 0.38954923
000340 90 1c 8b 3c dc 65 aa bd 60 8b 30 3d ab ce cf bb
       0.016981393 -0.083202094 0.04310167 -0.0063417754
000350 0f 64 b4 3e 4d 38 34 3e c2 8a d2 3c 38 4d fe 3b
       0.3523259 0.17599602 0.02570093 0.00776067
000360 ae 4f 1e 3e 46 1b c9 3c 27 3a 23 bd a2 14 93 3d
       0.15460083 0.024549138 -0.03985038 0.0718167
000370 df 8e 2d bd f0 95 9c 3d 15 a6 7c 3d 48 1c 89 3d
       -0.04237258 0.07645786 0.061681826 0.06694847
000380 a5 76 a6 be 10 ef c9 3e 4e a1 ce bd 2b a1 4a 3c
       -0.32512394 0.39440203 -0.1008936 0.012367527
000390 f7 52 55 3e dc 8c 63 bd 48 ea cc 3e eb f6 56 be
       0.2083243 -0.055554256 0.40022492 -0.20992629
0003a0 f6 5f cc 3d b4 26 4b bd 3e df 25 bd 41 34 ac 3d
       0.099792406 -0.049597457 -0.040496103 0.08408404
0003b0 ad b4 03 3d 3b f1 8a 3d 94 a3 0b bd aa 11 5b be
       0.032154728 0.06784292 -0.034091547 -0.21393457
0003c0 b8 34 2a bf 58 d7 96 3c 36 fa b4 3d 4c 78 e5 be
       -0.6648669 0.01841323 0.088367864 -0.44818342
0003d0 77 af 31 3c c3 51 63 3d 11 54 f2 3e 2a 3a 86 be
       0.010845057 0.055497896 0.47329763 -0.2621625
0003e0 13 c8 f4 bd 33 e3 50 3d 3e 72 b3 37 fc 1e d2 3d
       -0.11952224 0.050997924 2.1391661e-05 0.10259816
0003f0 7c 62 fb 3e df 4a 86 3e dc 5c b0 3d cc 58 07 3c
       0.49098575 0.26228997 0.086114615 0.008260917

policy_logits.bias f4 [2]
000000 fd 72 a2 bd ae d8 80 3d
       -0.079320885 0.06291328

values.weight f4 [1, 128]
000000 3e 7f 2c 3c db 48 94 3d a6 66 4f 3f b2 dc ce bc
       0.010528384 0.072404586 0.81016004 -0.02525172
000010 61 33 59 3d 8c a8 97 3e 1a 23 0d 3c 08 62 24 bd
       0.053027514 0.2962078 0.008614326 -0.040132552
000020 6a f7 f1 bd 50 a7 80 3f bc 15 2d 3e 7b 84 62 be
       -0.118147686 1.005106 0.16902822 -0.2212085
000030 58 ab c5 3d 61 ff 2c bc e5 50 42 3d 86 7c 48 bc
       0.09651822 -0.010558934 0.04744043 -0.01223672
000040 ca 77 25 3f d6 1c 5b 3e dd 60 98 3f 18 07 93 3e
       0.6463591 0.21397719 1.190456 0.2871635
000050 16 31 95 be cd b0 d5 be 61 76 e0 bb 69 88 a6 be
       -0.29139012 -0.4173645 -0.0068500494 -0.32525948
000060 30 50 11 3b dd 4c 97 3d 14 d8 15 be 88 c0 86 be
       0.002217304 0.073877074 -0.14633209 -0.26318765
000070 81 db b0 be 2e 9d b6 be 71 aa ed bd ad 75 b5 3f
       -0.34542468 -0.35666794 -0.11604775 1.4176537
000080 46 5e 44 bd a9 68 c8 bb ba 79 2c bd c5 48 47 3c
       -0.04794147 -0.006115992 -0.042108275 0.012163346
000090 b3 b5 c9 ba de 59 b8 3e 18 8e 8a be b6 5a 9e be
       -0.0015389234 0.36006063 -0.27061534 -0.30928582
0000a0 b8 d6 01 bd 5c 03 55 3e d4 d0 4e 3f f2 92 ce bd
       -0.031698912 0.20802063 0.80787396 -0.10086621
0000b0 92 a6 84 bd f1 78 c1 be a9 92 e3 3f ad 81 f9 3e
       -0.06477083 -0.37787583 1.7779132 0.48731747
0000c0 d0 36 73 be 00 e4 b3 bd 69 4c b2 bb 85 b0 6b 3d
       -0.23751378 -0.08783722 -0.0054412377 0.05754139
0000d0 7b e7 fc 3e 39 af c9 bd 0a a5 85 be 20 51 0e bf
       0.49395356 -0.09847874 -0.26102477 -0.55592537
0000e0 09 2b d6 3f a6 68 24 3d cd 35 78 3f 7c d1 b5 bc
       1.6731883 0.040138863 0.96957093 -0.022194616
0000f0 84 e5 ff bd a9 bb b1 be e8 ff 10 be 43 30 05 3f
       -0.124949485 -0.34713486 -0.1416012 0.52026767
000100 ab 74 1f 3f 32 70 63 3d 6c 01 fa bc ce ac 96 bd
       0.62287396 0.05552692 -0.030518256 -0.07357179
000110 92 35 35 be 75 80 72 be f4 6d 3a 3d f1 fb 1f be
       -0.17696217 -0.23681815 0.045515016 -0.15623452
000120 68 d0 d2 3c 7f 26 9a 3d d1 bc 88 be 49 57 5b be
       0.025734141 0.07526874 -0.26706555 -0.21420015
000130 a7 0f 63 bc cd 56 7f bc f0 67 55 bc 9c a5 54 3f
       -0.013858712 -0.01558466 -0.013025269 0.830652
000140 55 fe d2 bc f1 a3 08 3f 02 2b 79 bd c2 2b 2c be
       -0.02575604 0.53375155 -0.06083203 -0.16813567
000150 1b 65 98 be af 72 aa 3f 19 8a 66 bc 70 fd 06 3c
       -0.29764637 1.3316249 -0.014071011 0.008239135
000160 2d dc 29 be f7 b3 69 bc 79 9c 32 bc c0 23 ea 3c
       -0.16587897 -0.014264098 -0.010901564 0.0285815
000170 39 0a 5e 3d 56 6d ee 3c 52 ff d8 bd c8 dc 99 3e
       0.054208968 0.02910487 -0.105955735 0.30051255
000180 ef 66 6c be 94 cf 44 be 95 bc ee be 6d 68 19 3f
       -0.23086141 -0.1921981 -0.46628252 0.59924966
000190 75 ab 91 3f 74 58 e5 3e 63 80 8b be 90 ca f2 3c
       1.138045 0.44794047 -0.2724639 0.029637605
0001a0 25 79 47 be 6d 00 0e 3b 43 4f 3e bb 58 a5 47 be
       -0.19479807 0.0021667734 -0.0029038943 -0.19496667
0001b0 70 bd 55 bc 03 ed 3f 3d 7f 59 1b 3e 62 73 02 bf
       -0.013045654 0.04685689 0.15170859 -0.5095731
0001c0 27 1c 9c be cc 23 86 3c aa 59 5e bd ba 36 ca 3d
       -0.3049023 0.016374491 -0.05428473 0.098737195
0001d0 a7 4e f1 bd 27 0c 3a 3d e2 24 27 be 76 fe d3 be
       -0.1178258 0.045421746 -0.16322663 -0.41405076
0001e0 39 ac a6 3d 72 ce 7e bc 50 c5 4d 3d 73 3c cc 3e
       0.081383176 -0.01555215 0.050237 0.3988987
0001f0 d4 67 d9 be 4e 80 35 bc ec e3 cd 3c 99 93 57 bc
       -0.42462027 -0.0110779535 0.025133096 -0.013157749
